poke_vision.pth (torch, 680368 bytes, 10 tensors)

conv1.weight f4 [6, 3, 5, 5]
000000 2d d9 36 bc 3d 9a a5 3d c6 f1 c0 bd 6e 72 9a bd
       -0.011160177 0.08086059 -0.094211146 -0.07541357
000010 d9 c8 07 3d e7 44 c8 bd 75 4e b6 3d 50 b7 ce 3d
       0.033150528 -0.09778767 0.08901683 0.10093558
000020 1b 0e 01 3d 42 0e e5 3c fd da 94 bd 2c cf ce bc
       0.031507593 0.0279609 -0.07268331 -0.025245272
000030 64 f2 4b bd 1e 1a ab 3d fa ff d3 bc c6 f0 28 bd
       -0.04979171 0.08354591 -0.025878895 -0.041245244
000040 01 c6 b5 3d 2d 40 2a bc b7 c4 a8 3d 98 ba 1e bd
       0.08875657 -0.010391277 0.082406454 -0.03875217
000050 f6 97 95 3d 81 05 8d 39 01 30 04 bd 9f b2 13 3d
       0.07304375 0.00026897716 -0.032272343 0.03605902
000060 34 87 6b 3d f2 15 60 ba fe 8f ab 3d a2 b8 9d bd
       0.057501987 -0.0008548192 0.08377074 -0.077012315
000070 83 d1 af bc 04 99 a8 3d 85 95 4f 3d d4 15 88 bd
       -0.021462208 0.082323104 0.050679702 -0.066447884
000080 31 e1 93 3d d0 80 82 bd 08 ad 1f 3d 88 89 07 bd
       0.07220686 -0.06372225 0.038983375 -0.033090144
000090 3e 44 91 bd 61 b9 d8 3c 85 de d1 bd e6 76 ce bd
       -0.07093094 0.026455583 -0.1024752 -0.10081272
0000a0 21 e1 8c 3d fa 50 4a bc 6d 47 a9 bc 44 d3 dc 3b
       0.068788774 -0.012348408 -0.020663941 0.006739052
0000b0 de 8b e0 bd c1 79 83 bd 38 1b e4 bd 69 0b ee 3c
       -0.109641775 -0.06419707 -0.11138004 0.029058175
0000c0 32 c8 3a 3d 1b 56 b1 3b 99 1f 12 bd c1 64 99 bb
       0.045601077 0.005411876 -0.035674665 -0.0046812003
0000d0 e9 c0 8f bd 40 6a e8 bd 1d ae 38 3c 73 79 70 bd
       -0.070192166 -0.113483906 0.011271981 -0.058709573
0000e0 e0 0d 98 bd 15 ee 77 3d f7 30 aa 3c 80 2e e8 bd
       -0.074245214 0.060529787 0.020775301 -0.11336994
0000f0 c3 72 70 3c 83 e5 89 bd fe 4e e6 bc e0 a9 97 3d
       0.014675799 -0.06733229 -0.028113838 0.07405448
000100 0c 42 d2 3d c5 d0 fe 3c 02 c3 06 bd d5 67 d3 bd
       0.10266504 0.031105408 -0.032900818 -0.10322539
000110 ae b7 ba 3a 28 e3 82 3d 2f 18 f1 bb d5 3f 5f 3d
       0.0014245415 0.06390983 -0.0073576192 0.054504234
000120 ed 51 4c 3d 1c 43 b1 3d 9f 0c 82 3c a2 71 d5 bd
       0.049882818 0.08655378 0.015875159 -0.10422064
000130 71 14 56 bd e3 01 2f 3d 76 c6 5b bd 46 96 56 3d
       -0.05226559 0.04272641 -0.053656064 0.052389406
000140 2d 00 bf 3d 1b 88 c4 bd 18 49 8b bd 7c 3d d7 bd
       0.093262054 -0.095962726 -0.06801051 -0.10509774
000150 99 16 c0 3d 7e 87 99 bd c7 92 07 bd ef d9 88 bd
       0.0937931 -0.07496546 -0.033098962 -0.066821925
000160 4d d9 d2 bd 37 37 b0 3d b0 84 4d bd 18 ac ac bd
       -0.10295353 0.086042814 -0.05017537 -0.08431262
000170 ae 21 95 3d ba d7 c1 3d 3b a0 e4 bd 1e 67 20 bd
       0.072818145 0.09464975 -0.11163374 -0.03916084
000180 57 74 ec 3d 23 d4 bb bd f4 15 97 bd 8b 73 38 3c
       0.115456276 -0.09171321 -0.07377234 0.011258016
000190 1f 2b 5e bc 42 58 0a 3d f9 bb bf bd e7 e7 7f 3d
       -0.013560086 0.033775575 -0.09362025 0.06247702
0001a0 17 b8 85 bd 79 83 7f 3a a5 37 e1 bc 7c 76 a9 bd
       -0.06529253 0.0009747069 -0.027492354 -0.08274552
0001b0 a4 0e 53 bc ae 4d 91 bd a1 3a e6 3d 34 a6 b4 bc
       -0.012881909 -0.07094894 0.11241651 -0.022051908
0001c0 3c 2b 6f 3c 48 2c a8 3d 1d e4 db bd 60 e1 99 bd
       0.01459771 0.08211571 -0.107368685 -0.0751369
0001d0 25 71 ac bd 6e ec 9a 3d cd 16 54 3c 57 b3 c3 bd
       -0.08420018 0.07564627 0.012944889 -0.09555691
0001e0 67 7a 6b bc 60 bf df bd 8d 5c 13 3d 41 59 8f 3d
       -0.014372445 -0.10925174 0.035976935 0.06999446
0001f0 3f 59 b7 3d e3 66 78 bd 5c 73 86 3b 9c 9f 9f bd
       0.08952569 -0.060644995 0.0041031074 -0.07794115
000200 9c fe ea 3d 25 18 4a 3c 43 d1 97 3d c1 0d 5c 3c
       0.11474344 0.012334858 0.074129604 0.013431014
000210 87 30 d5 3d 3e 5e 9c bc 16 37 c4 bd 47 90 06 bd
       0.104096465 -0.019087907 -0.09580819 -0.032852437
000220 df 51 c7 bd 02 03 b3 bc a7 cf 33 3d 50 87 e8 3d
       -0.097324125 -0.02185202 0.043899205 0.11353934
000230 48 d8 4c bd ae ce 78 3d 53 5f 66 bd b2 2c 3f bd
       -0.05001095 0.06074398 -0.056243252 -0.046673484
000240 fc 2b f3 3c 82 9e 4e 3d a6 cf fc bc 1b 6d 4a 3d
       0.02968406 0.050444134 -0.030860733 0.049420457
000250 e2 bc 42 3b ea 1b 7a bd f3 05 a0 bc 6f 35 78 3d
       0.0029714634 -0.061061777 -0.019534087 0.060597833
000260 f2 c3 a5 bd f9 3e a1 3d c1 97 83 bd e0 c6 e2 3d
       -0.08094014 0.07873339 -0.06425429 0.11073089
000270 f5 6a d5 3b 30 79 2c bd cf eb 3c 3d 70 b6 d8 bd
       0.0065129944 -0.04210776 0.046123322 -0.10581672
000280 5a 4b e0 3d 14 86 3c bc ae 53 0a 3d 81 83 04 3d
       0.10951872 -0.011506576 0.03377121 0.032351974
000290 9b 9f 47 3c 91 09 c8 3d 72 4b 47 bd 37 ef a5 3d
       0.012184049 0.0976745 -0.048655935 0.08102267
0002a0 88 92 e2 bd 52 0e 52 bd d0 09 c9 bd 72 21 d5 bc
       -0.11063105 -0.05128319 -0.09816325 -0.026016925
0002b0 50 f1 1a 3c c7 bc 87 3c 88 4b d7 bd aa 7b ea bd
       0.009456947 0.016569508 -0.10512453 -0.11449368
0002c0 ae cf a3 bd 9b 52 e0 bc fa 54 09 bd e4 c0 e4 3d
       -0.07998596 -0.02738314 -0.033528306 0.111696035
0002d0 34 c4 f3 bc 7a eb d9 bd eb bc 2a 3d 97 c3 02 bc
       -0.029756643 -0.10640617 0.041684072 -0.007981203
0002e0 13 50 98 bc 02 c9 c5 3d d2 77 d4 3d 1a f4 5c bd
       -0.01859287 0.0965748 0.103744164 -0.05394373
0002f0 b5 3c 27 bd 42 6b 63 bc e1 3d d1 3d d9 21 c1 bd
       -0.04082938 -0.013880553 0.102168806 -0.09430284
000300 1c 51 b6 3d 5b da 33 3d 7c 83 aa bd 73 87 e7 3d
       0.08902189 0.043909412 -0.0832586 0.11305132
000310 fc 11 d6 bd ee fc f1 bc a0 4e 81 3d 7c 37 10 3d
       -0.10452649 -0.029539552 0.06313825 0.035209164
000320 4d ff 00 bd 0c 11 a2 3c 2f 30 cf bd e4 9d b2 bc
       -0.031493474 0.01978352 -0.10116612 -0.021803804
000330 42 8a 5e 3d bc fa 82 3d e6 01 95 bc 83 b3 0c bd
       0.05433107 0.0639548 -0.018189382 -0.034350883
000340 fb 3b b2 bd 34 d6 d5 3d 9e d5 9e bc 02 2f be 3d
       -0.087028466 0.10441247 -0.01938897 0.0928631
000350 29 67 af 3d 18 d4 e3 bc c0 c4 90 3c 6f 69 80 bd
       0.08564598 -0.027811095 0.017671943 -0.0627011
000360 6f 06 17 bd d0 ae 87 bd 89 98 c9 3d 6b 4f e4 3d
       -0.03687137 -0.0662514 0.09843547 0.1114796
000370 d1 82 da bb a6 ff 40 3d 12 17 e1 3d 1c c5 26 3d
       -0.0066684266 0.047118805 0.109907284 0.040715322
000380 19 c6 94 bd 56 62 af 3d c1 31 5a 3d 13 db 99 3d
       -0.07264347 0.08563678 0.053270105 0.07512488
000390 03 1b 02 3d fa e1 b9 3d 49 dc 3f bd b1 8b ab bd
       0.03176404 0.09076305 -0.04684094 -0.083762534
0003a0 d4 49 b7 bc 1c ab a7 bc b9 df 86 bc 4f 7f 9f 3d
       -0.022374071 -0.020467333 -0.016464101 0.07787954
0003b0 63 2b dc bc c6 7c 96 bd 4c 02 91 3c 18 28 e1 bd
       -0.026876157 -0.073480174 0.01770129 -0.109939754
0003c0 cc ac 7e 3d 05 d4 d4 3d 3d 84 dc 3d 36 ad 8f bd
       0.06217651 0.10392002 0.1076741 -0.07015459
0003d0 ec ee ad 3d 23 78 c6 3d ac 06 9f bd 5d 7b 06 bd
       0.08492836 0.09690883 -0.077649444 -0.032832492
0003e0 0e 41 aa bd 9e 3e e9 bd cd 5b 81 3d 14 ae c7 3d
       -0.083131894 -0.113888964 0.06316338 0.0975
0003f0 33 b6 8b 3d 5e c0 c8 bc c6 5c a5 bd 74 ce 82 bd
       0.06821861 -0.02450579 -0.08074336 -0.06387034

conv1.bias f4 [6]
000000 32 33 cd bd e4 1a 6f bd bb 80 0d bd d4 a1 66 bd
       -0.1001953 -0.058375254 -0.034546595 -0.056306675
000010 4b a2 10 bd 2b e9 98 3d
       -0.035311025 0.07466348

conv2.weight f4 [16, 6, 5, 5]
000000 4e 05 4d bd 2e bb 4a 3d 3a db b7 3c 15 03 9b bd
       -0.050053887 0.049494915 0.022443403 -0.07568947
000010 72 13 51 bd 63 24 58 3c 06 cb 21 bd cb 8a fa bc
       -0.051043935 0.013192269 -0.03950026 -0.03058376
000020 b0 44 2b bb b7 b1 0b bd 7d 51 8e 3d ed b3 09 3c
       -0.002613347 -0.03410503 0.069491364 0.008404714
000030 70 82 a1 bd 22 05 7d 3d 15 7f b0 bc d8 1a 5b 3d
       -0.07886207 0.061772473 -0.021544972 0.053492397
000040 40 a0 46 bd 90 35 aa bc e8 8d 96 bc 59 ea 9c bb
       -0.04849267 -0.020777494 -0.018378213 -0.0047886786
000050 d6 e8 23 bc b9 f1 2c bd 78 38 3b bd 28 68 4c 3d
       -0.010004243 -0.042222712 -0.04570815 0.04990402
000060 13 c2 36 bb c8 0a 10 bd 82 a3 80 3c 6e dd 59 3d
       -0.0027886673 -0.03516653 0.015702967 0.053189687
000070 99 c3 c2 3c 5d ec 9d 3d af f5 df 3c fa b0 e5 3c
       0.023774909 0.07711098 0.02733883 0.02803849
000080 4d 25 a9 bc d1 4c 98 bd 8d 00 84 3b 7a bd 37 3d
       -0.02064767 -0.074365266 0.004028386 0.044858433
000090 26 49 d0 3b f7 55 a3 bd a7 f7 19 3d eb 01 7c bd
       0.006356376 -0.07975381 0.037589695 -0.061525267
0000a0 09 1f 8e bd 51 81 95 3d 73 0b 9c 3d 71 61 04 3d
       -0.06939513 0.07300056 0.07619371 0.03231949
0000b0 1a bf bc bc 96 c3 9c 3a b8 c5 06 3c f1 21 9a b9
       -0.023040343 0.0011960145 0.008225851 -0.00029398457
0000c0 c2 9e 2b 3d de c2 a5 3d 8e 02 9e bd 77 cd 6c bd
       0.04189945 0.080938086 -0.07715331 -0.057813134
0000d0 18 57 1d bc ec 7c dc 3c 4a 4c d8 bb 8c 39 a4 3d
       -0.009603284 0.026915036 -0.0066008912 0.08018789
0000e0 bf bd 6d bd 09 09 91 3d b3 e1 b7 3c 92 f6 d6 ba
       -0.058042284 0.070818014 0.022446489 -0.0016400388
0000f0 de 4a d5 bc 98 89 69 bd 60 4f 60 3d d5 46 65 3d
       -0.026036676 -0.057015985 0.054763198 0.055975754
000100 21 56 da bc 41 7a 57 bd 68 32 0a 3b 4f 89 7e bd
       -0.026652398 -0.052606825 0.0021087173 -0.062142666
000110 a0 a6 97 bd 9c 07 96 bd 61 fb a0 bd c8 34 53 bd
       -0.07404828 -0.0732567 -0.07860447 -0.051564008
000120 c8 56 1c 3d 25 bd a3 bd c6 dd 12 3d 05 55 f4 3b
       0.0381687 -0.07995061 0.03585603 0.007456424
000130 65 f1 8e 3d a5 0e 06 bc 62 12 90 bc 18 bb a2 bd
       0.06979636 -0.0081822025 -0.01758689 -0.079458416
000140 32 2c 15 bd d1 67 91 3d e2 30 3f 3d 69 4a 1b bd
       -0.0364191 0.070998795 0.046677478 -0.03791276
000150 6f 98 ec bc 3a 88 16 3d 78 7c 5f 3d 97 ee a8 3c
       -0.02888128 0.03675101 0.054562062 0.020621581
000160 7f be 12 bd b8 d7 1a 3d c7 9f 25 3d 69 56 79 bc
       -0.035826202 0.03780338 0.04043558 -0.015218356
000170 b4 3c 78 3c 57 72 af bc 2a 12 2a 3d 73 92 2f bd
       0.0151511915 -0.021416826 0.04152123 -0.042864274
000180 25 68 17 bd c5 3e 6c bc 76 f2 ce 3c df 48 2b 3d
       -0.036964554 -0.014419262 0.025262099 0.041817542
000190 83 73 28 bd 8c c6 2c bd 9d 18 53 bd f1 1f 3b 3d
       -0.041125786 -0.042181537 -0.051537145 0.04568476
0001a0 4f 3c 06 3d 49 c7 51 bb ae 4b 74 3d fc c1 a5 bd
       0.03277236 -0.0032009652 0.059642486 -0.0809364
0001b0 79 45 ab bc 72 77 72 bd 75 6a 5e bd e4 27 6c bd
       -0.02090715 -0.059195943 -0.054300744 -0.05765523
0001c0 95 f2 17 3d 55 6c 84 bd fa dc 54 3d 94 fc 06 bd
       0.03709658 -0.06465975 0.051968552 -0.03295572
0001d0 e5 92 69 3d 8e 40 67 3d e2 a0 1b bd 82 05 71 3d
       0.057024855 0.05645805 -0.037995227 0.058843143
0001e0 f2 48 16 3d 18 e1 3a 3d f1 d4 6a bd b0 8e 00 3b
       0.03669066 0.045624822 -0.057331983 0.0019616298
0001f0 a4 1b 84 bb 25 58 fe 3a bc f9 46 bd ae e4 7e bc
       -0.0040316153 0.0019404931 -0.04857801 -0.015557451
000200 94 2a be bc 13 7e 81 bb dc 82 0f 3d 5b 1e 74 3d
       -0.023213662 -0.003951797 0.035036907 0.05959926
000210 09 22 62 bc 58 22 f0 bc ec aa a2 bd a6 03 b3 bc
       -0.01380206 -0.029313251 -0.07942757 -0.021852326
000220 ad 8f 0b 3d 3a 80 87 3c eb 00 de bc c0 09 7d bd
       0.034072567 0.016540635 -0.027100047 -0.061776876
000230 6a 93 85 3d b3 b9 06 3d ec 38 86 3d d4 bf 29 3d
       0.065222576 0.03289194 0.06553826 0.041442707
000240 88 f9 58 bd 6c 4a a2 bd 13 0d 7a 3d 9b 55 52 bd
       -0.052972347 -0.07924351 0.061047625 -0.05135117
000250 2c e4 d3 bc 2d 59 21 bd 3b 2d a7 3d d3 8e 7b 3d
       -0.025865637 -0.039391685 0.08162924 0.061415505
000260 78 32 6d 3d 40 4c 0d 3d d7 20 78 bd b1 5e 94 bd
       0.05790946 0.034496546 -0.060578194 -0.072446235
000270 16 53 8a 3d 5d 24 09 bd 30 2d 64 3d 1a 00 86 3d
       0.06754129 -0.033481944 0.055707157 0.06542988
000280 2d 8d 4b bd 59 76 82 3d 38 3e 69 bd 77 d4 c4 3c
       -0.049695183 0.06370229 -0.056944102 0.024027092
000290 f2 97 67 3d da 04 94 bd 26 50 94 bd 8f 36 a6 bd
       0.05654139 -0.07227488 -0.072418496 -0.08115875
0002a0 22 4f 50 3d e7 f8 82 bd 7b 22 39 3c ab b7 5e 3d
       0.050856717 -0.063951306 0.011299725 0.05437438
0002b0 59 5a 91 bc 51 9a 82 3d f0 e0 79 3d ec 88 d8 3b
       -0.017743276 0.0637709 0.061005533 0.0066081192
0002c0 a0 5c 32 3b bc 69 c0 3c 03 c8 d3 3c 4c cf 39 bc
       0.0027215853 0.023487918 0.025852209 -0.011340927
0002d0 36 46 2c 3d 82 4a 93 bd 62 fd 88 39 41 f2 00 bd
       0.042059146 -0.071919456 0.00026128726 -0.03148103
0002e0 86 5f 6f 3d 79 7e 24 bd 35 1d 22 3c a0 e0 fa 3c
       0.058440708 -0.040159676 0.009894659 0.030624688
0002f0 63 1c a0 bc c9 cf 10 3d c5 f7 4b 3d 23 33 46 bd
       -0.019544786 0.03535441 0.04979684 -0.04838861
000300 f4 91 a0 bc ca d0 10 bc c8 33 d2 bc 76 a9 3c 3d
       -0.019600846 -0.008838842 -0.025659457 0.046060048
000310 6c 5c 85 3d 81 e7 29 bd 6a 2b 97 bd a1 89 39 3d
       0.06511769 -0.041480545 -0.073813275 0.04529727
000320 08 dc 4b 3c c5 47 6b 3d aa 7f a2 3d 0c 56 a8 bc
       0.012442596 0.05744149 0.07934506 -0.020548843
000330 6a 9c a2 3d ec 37 7c 3d 67 b9 04 bc b2 16 34 bd
       0.0793999 0.06157677 -0.008100844 -0.043966956
000340 01 13 8f 3d 5a f5 7c bd 0e 57 97 3c d6 ab 7b 3d
       0.069860466 -0.061757423 0.018474128 0.061443172
000350 45 60 74 bd 77 f9 57 bd bf 44 a2 3d 4b a3 70 bd
       -0.059662122 -0.052728143 0.079232685 -0.05874948
000360 96 77 e5 3c 53 3a 1d bd a0 5d c0 bc 82 20 50 bd
       0.028011125 -0.0383857 -0.023482144 -0.050812252
000370 e3 90 79 bd e9 31 8e 3d d3 da 97 bd 64 4e 26 bb
       -0.06092919 0.06943113 -0.07414784 -0.0025376314
000380 f4 9e 01 3d 93 a8 10 bd c5 5a c8 bc d2 9e 75 3d
       0.03164573 -0.035317015 -0.024457345 0.059965916
000390 1e 6d d0 bb 9b d2 01 bd 5d 2c 1c 3d e9 d2 48 bd
       -0.006360664 -0.03169499 0.038128246 -0.049029265
0003a0 a2 4e 3c bc 72 5b 7f 3d d5 71 93 3d b6 13 4f bd
       -0.011493357 0.06234307 0.07199446 -0.050555907
0003b0 81 dd 2c bd 99 dc c0 bc 66 df 0d 3d 81 3b 67 3d
       -0.04220343 -0.02354269 0.034636877 0.05645323
0003c0 e6 8d 8b 3d c5 af 98 bd 93 38 fa bb 3e 84 3b bd
       0.06814174 -0.074554004 -0.0076361387 -0.045780413
0003d0 a0 0e d3 3c 59 e4 88 bc b4 68 8e 3d ef 75 df 3c
       0.02576381 -0.016710447 0.06953564 0.027277915
0003e0 43 76 a5 3d 12 97 80 bc bd e2 91 bc cf 09 93 3d
       0.08079197 -0.015697036 -0.017808313 0.07179605
0003f0 53 b5 77 3c cc cf a7 bc dd 68 d3 bc c7 b3 a3 bd
       0.015118915 -0.020484827 -0.025806839 -0.07993274

conv2.bias f4 [16]
000000 e0 e8 92 bd ae 64 60 3d 13 d5 34 bd 86 b3 54 3c
       -0.07173324 0.054783516 -0.044148516 0.012982255
000010 12 68 f5 bc a6 87 8a 3c 8d 6f 92 bd 73 a1 16 bd
       -0.029956851 0.016910385 -0.07150183 -0.036775064
000020 4a 49 8a bd 80 04 db 3b 3b d7 e0 bc fe 53 38 bd
       -0.0675226 0.006683886 -0.02744638 -0.045001976
000030 c0 fd c4 bc 18 05 be bc b4 98 18 bd 88 e3 42 3d
       -0.024046779 -0.023195788 -0.037255004 0.047580272

fc1.weight f4 [120, 1296]
000000 c6 47 92 3c 92 51 8c 3c ed 39 dd bc cb 3b d6 bc
       0.01785649 0.01712874 -0.02700516 -0.026151558
000010 ab 84 60 bc 00 81 5f bc 79 16 84 3b 43 e4 c7 bc
       -0.0137035055 -0.013641596 0.0040309993 -0.024400836
000020 82 8f 61 3b c3 a5 08 3b 0d 10 86 3c 0b 4f 5d bc
       0.0034417813 0.0020850755 0.016365075 -0.013507615
000030 72 c4 46 bc 65 b7 e2 3c 16 ac 32 bb e4 e0 78 ba
       -0.012131797 0.02767534 -0.0027263216 -0.00094939605
000040 d1 83 03 bc a9 64 62 3c 57 65 c2 3b c9 f2 09 bc
       -0.008027033 0.013817945 0.005932491 -0.008419701
000050 f2 3f f5 bb ce ee 4b 3c ae bb 4c bc 81 cb ab 3c
       -0.0074844295 0.012447072 -0.012495918 0.020971062
000060 08 60 02 3a a7 fd 23 3c d5 a6 23 3c c0 32 99 bb
       0.0004973416 0.010009206 0.009988506 -0.0046752393
000070 2e 1b 35 3c e9 46 90 ba 47 ee cc 3b e7 47 4d 3c
       0.011053843 -0.0011007461 0.006253991 0.01252935
000080 e2 76 84 3c 0e 7f d6 bb 3e 39 91 bc b7 14 35 3c
       0.016169969 -0.006545908 -0.01772749 0.011052302
000090 e4 8e 3b bc 95 cc 87 3c 8e 4e de 3a 72 c1 bd 3b
       -0.011447642 0.016577045 0.0016960667 0.0057908827
0000a0 80 43 78 bb 55 db 10 bc d7 9d dc bc 1b dd 1a 3c
       -0.003788203 -0.008841355 -0.026930733 0.00945213
0000b0 55 82 9f 38 c2 52 2d bc 37 6f 8a bc fd 19 bf 3c
       7.605987e-05 -0.010578813 -0.016898734 0.023327822
0000c0 9d 03 76 3b 47 dd 5d bc d9 24 42 3c 39 78 bd 3a
       0.0037538775 -0.013541526 0.0118496055 0.0014455385
0000d0 59 c0 02 3c 6f c5 89 3c 31 23 71 bc 5f bf 41 b8
       0.00798043 0.016817776 -0.014717863 -4.6193014e-05
0000e0 cb c8 44 bc 96 4a 49 bc dd e7 cc bb 47 dd a4 bc
       -0.012010763 -0.012285849 -0.006253226 -0.020125045
0000f0 cd bc 77 bc 3c f0 ae bc 2e 54 df ba 83 31 00 3c
       -0.015120697 -0.021354787 -0.0017038637 0.0078243045
000100 27 9c d9 bc ca 4e 48 3c 00 41 20 bb 60 8d 02 3c
       -0.026563717 0.012225816 -0.0024452806 0.007968277
000110 ea 32 66 bc a7 e2 ba 3c 64 dd 95 bc 1d 1e cb 3c
       -0.014050225 0.022813154 -0.018294044 0.024794633
000120 fd 4a 50 3c ef 2d 5c bb 55 0e ed ba c7 2f a4 ba
       0.012713191 -0.0033596714 -0.0018085936 -0.0012526446
000130 2c 09 8f bc 70 31 c9 3c 96 27 d6 bc c3 99 9c bc
       -0.017460428 0.024559706 -0.026141923 -0.019116288
000140 e3 44 d5 bc e2 02 af 3b 7e f8 c2 3c 3f 44 1f bc
       -0.026033824 0.00534092 0.023800131 -0.009720861
000150 f4 a7 55 3b 3a 6a 86 3c fc e2 19 3c 0d f3 c1 3c
       0.0032601329 0.016408075 0.009392496 0.023675466
000160 b4 c5 e4 3c 65 c2 de bc c8 ff 44 3c 0f a4 db 3b
       0.027926303 -0.027192304 0.012023874 0.006702907
000170 b4 57 32 bb 77 21 a6 ba 34 90 9a 3c 32 88 a3 3c
       -0.002721292 -0.0012674768 0.01886759 0.019962404
000180 ef 90 b0 3b a5 97 20 bb 19 42 db ba 12 9d b2 bc
       0.005388371 -0.002450445 -0.0016728073 -0.021803413
000190 d3 08 4d 3b 00 12 7d 3b bd ab 26 3c bd 46 b6 bc
       0.0031285777 0.0038615465 0.010172782 -0.022250528
0001a0 36 cf 25 3b 83 d2 30 3b 20 ef 80 3c 4f 6e 53 3c
       0.002530051 0.0026980944 0.015739024 0.012904718
0001b0 10 15 81 bc 34 51 3f bc 78 cf db bb 11 17 05 bc
       -0.015757114 -0.011677075 -0.006708082 -0.008123175
0001c0 9f 00 c8 bb b6 4e 3d 3b 4b ce 66 3c 8d 3d f4 bb
       -0.0061035897 0.0028886027 0.01408727 -0.0074536265
0001d0 21 96 fc 3b 00 e2 7a bc 7a 08 d1 bc f3 ef 32 bc
       0.0077083264 -0.015312672 -0.025516737 -0.010921466
0001e0 0d 5c 5c 3c 13 66 61 bc 0f e3 dd 3c f1 49 e0 39
       0.013449681 -0.013757247 0.027085809 0.000427797
0001f0 d2 b3 ae bc f8 13 9d bc 9a 9b d4 bc 72 90 a5 bb
       -0.02132598 -0.01917456 -0.025953103 -0.0050526196
000200 f8 70 c5 3c 0e 7f d4 3c 3d ef 43 3c 9c 9e 4c bc
       0.02410172 0.02593949 0.011958894 -0.012488987
000210 88 f7 ab bc 03 ed b1 3c 18 a1 dd ba bf d5 94 3b
       -0.020992056 0.021719461 -0.0016908972 0.004542082
000220 19 35 01 bc 4e b4 e3 bb ec c5 4a 3b 8d 23 9b bc
       -0.007886195 -0.006948984 0.0030940725 -0.01893785
000230 45 95 c8 bc da ea c5 3c 22 b9 28 bc 94 4c 07 3c
       -0.02448524 0.024159838 -0.010298045 0.008258004
000240 c2 db dd bc 28 0b 62 bc e7 59 aa 3c 3d 43 e5 bb
       -0.027082328 -0.013796605 0.020794822 -0.006996541
000250 49 04 8d 3c 1b 85 db 3a 58 38 d0 3c 33 fc 60 bc
       0.017213957 0.0016748043 0.025417492 -0.013732004
000260 e7 65 ed 3b b7 c6 91 3b 61 7f 72 bc 3c 0e 2d bc
       0.0072448137 0.0044487375 -0.014800877 -0.010562476
000270 c4 4c 7f 3b d0 7c 99 bb 77 0d b9 bc 21 dd 46 bc
       0.0038955668 -0.0046840683 -0.022589428 -0.012137682
000280 6c dc c9 bc 33 72 a3 3c 81 9e f1 ba 1e 40 9d bc
       -0.024641238 0.019951915 -0.0018434079 -0.019195613
000290 95 14 19 3c eb 2e 65 bc b2 73 8d 3b 75 e3 92 ba
       0.009343286 -0.013988237 0.0043167705 -0.0011206703
0002a0 a9 18 bf bc e0 64 ba bc cd 78 a0 3c 91 b8 97 bc
       -0.023327189 -0.02275318 0.019588852 -0.018520625
0002b0 4b af 9c bc 8a 6f 9f bb fd cb 46 3b c7 35 a1 3b
       -0.019126555 -0.0048655914 0.0030333989 0.004919741
0002c0 0f 32 58 3c aa ca 7d bb aa 91 3f bc 20 cf d5 bc
       0.013195529 -0.0038725534 -0.011692444 -0.026099741
0002d0 f9 d4 be bc ed 82 0f bc d8 cb ae 3a 80 04 7f bb
       -0.023294913 -0.0087592425 0.0013335897 -0.0038912594
0002e0 a3 89 b4 3c 7f c0 49 3c 63 3e 12 bb ce c9 d4 bb
       0.022038287 0.012313961 -0.0022315017 -0.0064937836
0002f0 43 53 50 3c 95 5c 87 bc 99 ea 7a bc ad b8 38 3c
       0.012715164 -0.016523639 -0.0153147215 0.011274499
000300 93 2c a7 3c f2 ae e0 bc be b9 a9 3c 51 21 35 bc
       0.020406997 -0.02742717 0.020718452 -0.0110553065
000310 78 e1 64 3c 64 c3 b8 3c 60 52 34 3c 9c 59 55 3c
       0.013969772 0.022554107 0.011005968 0.013021853
000320 c1 9a b0 3b 51 83 c8 3c 44 30 8a 3c 86 0e 3b bc
       0.005389542 0.024476679 0.016868718 -0.011417037
000330 04 d8 00 bc 16 ba b2 3c 1b bd b1 3c c4 ec a2 bc
       -0.007864002 0.021817248 0.021696618 -0.01988829
000340 a3 08 74 3c e8 e2 dd bc d0 fb 9e 3c e4 a2 d5 3c
       0.014894637 -0.027085736 0.019407183 0.026078649
000350 2e 80 a2 bc 5e a0 c2 bc a3 60 91 3c f9 f3 93 3c
       -0.019836511 -0.02375811 0.017746275 0.018060671
000360 34 eb 84 bc 01 f1 14 bb 63 b8 4d 3c c7 ba bc ba
       -0.016225435 -0.0022726657 0.012556168 -0.0014398926
000370 ac d7 21 3b 67 bb dd 3b 51 9e be 3b be 4a 27 bc
       0.00246952 0.006766725 0.0058172126 -0.010210691
000380 e6 09 3f bc ef e6 b7 bc 62 f7 14 bb 05 01 63 bc
       -0.011660075 -0.022448985 -0.002273046 -0.013855224
000390 85 60 f3 bb e0 d0 fd bb 33 e5 07 bb d4 ce ac ba
       -0.0074272775 -0.007745847 -0.0020735979 -0.0013184198
0003a0 78 29 9b 3a 6a 42 49 3a 84 09 97 ba 23 fb 1f bc
       0.001183792 0.0007677438 -0.0011523222 -0.0097644655
0003b0 e3 a2 d7 3c c5 65 60 bc fb ef 45 bc d5 d3 dd 3c
       0.026322788 -0.013696139 -0.012081142 0.027078548
0003c0 93 83 4b 3c b1 1a a8 3c 5e 90 0c 3c 6f 0c 97 3c
       0.012421506 0.02052054 0.008579342 0.018438546
0003d0 2b 0a 55 3c 9d 0a a4 3c 5e ec a1 3a 35 34 9e bc
       0.0130029125 0.020024592 0.0012353768 -0.019312004
0003e0 b4 8e 95 3c 8a e6 c6 3b 15 b0 f2 3b fc 3a 1a 3c
       0.018256523 0.006069963 0.0074062445 0.009413477
0003f0 5c 04 55 bb 4e ce bc 3c 59 d3 87 3c ec 99 27 bb
       -0.003250382 0.023047592 0.01658027 -0.0025573922

fc1.bias f4 [120]
000000 ac fe 2c bc 8e e8 8a 3c cd 0a 7a 3c b6 e9 67 bb
       -0.010558765 0.016956594 0.015261364 -0.0035387105
000010 3f ea dd bc 7f b4 38 ba 6d 44 38 3c 27 45 f2 bb
       -0.027089236 -0.0007045939 0.011246783 -0.0073934975
000020 53 1c af 3c a4 fb 90 bb b3 08 12 3c 7d 2b 28 3c
       0.02137581 -0.004424529 0.008913207 0.010264275
000030 34 10 d5 3c 54 1e a0 bc 69 61 21 bc 8e 02 51 bc
       0.026008703 -0.019545712 -0.009849885 -0.012756957
000040 21 ed d2 3c ae aa c1 bb 1f b3 e1 3c 9b 63 d2 3c
       0.025747837 -0.005910239 0.027551232 0.025682261
000050 f6 45 5c bb 04 51 c9 3b 2f 40 b2 bc 11 c0 c7 3c
       -0.0033611036 0.006143691 -0.02175912 0.024383577
000060 8f 95 7c bc e0 38 86 bc 70 ae dc bb e2 2c 26 bc
       -0.015416517 -0.016384542 -0.0067346618 -0.010142537
000070 4e d0 12 3c f9 f8 ad bc ef 57 cf bc ba 40 9b 3c
       0.0089607965 -0.021236883 -0.025310485 0.018951762
000080 2a 2c ae bc 6e c0 c0 bc c6 c1 b8 bc a7 d1 92 3c
       -0.021261293 -0.023529258 -0.022553336 0.017922236
000090 10 55 09 3c 58 43 ca bb 1d de 9e ba fa 42 92 bc
       0.008382097 -0.006172579 -0.0012120638 -0.017854203
0000a0 56 26 40 3c 7e 94 a6 bb 67 63 fd bb ff 72 93 bc
       0.01172789 -0.0050836196 -0.007732797 -0.01799917
0000b0 0c be 28 bc 1b ef 57 bc d3 00 a7 bb e4 f7 b9 bb
       -0.010299217 -0.013179566 -0.005096534 -0.005675303
0000c0 6b 90 d1 bc 6e fd c3 3c c2 b9 fc 3b a4 f5 74 3c
       -0.02558156 0.023924556 0.0077125737 0.014951143
0000d0 95 7a 2d 3c 68 f0 ca bc 16 b2 8e 3c 67 1d 75 ba
       0.010588308 -0.024772838 0.017418902 -0.00093503896
0000e0 80 70 71 bb be a4 33 3c fe d8 a1 bc 4c 21 40 bc
       -0.0036840737 0.010964571 -0.01975679 -0.011726689
0000f0 c3 4e 01 3c b9 3f 77 3c fe 6b b9 3c 68 1a c1 bc
       0.007892313 0.015090876 0.022634503 -0.023572162
000100 d5 bf 23 3c 35 81 81 bb f5 55 e5 3c 95 f0 29 ba
       0.009994467 -0.0039521703 0.02799509 -0.0006482688
000110 cb 03 14 bc db d0 2e bc 97 20 c7 3c 19 73 a5 bc
       -0.009034107 -0.010669912 0.024307532 -0.020196484
000120 3d 66 8a bc 6b d9 5b 3c c9 b1 97 bc c0 1b 79 3c
       -0.016894454 0.013418536 -0.018517392 0.01520437
000130 82 ba 8f bc 4c 58 54 3c 3c 26 7a bc 90 64 d0 bc
       -0.017544989 0.012960505 -0.015267905 -0.025438577
000140 e1 2e d8 bc 80 f9 cc bb 05 be cf bb d4 32 89 bc
       -0.026389541 -0.0062553287 -0.0063397908 -0.01674787
000150 7e 4c d5 bc 2e 8f bf bc c8 8d e0 3c a6 67 aa bc
       -0.02603745 -0.023383703 0.027411357 -0.020801377
000160 44 80 91 bc 13 e3 44 3b f9 01 ae bc a3 26 a0 bc
       -0.017761357 0.0030042573 -0.021241175 -0.019549673
000170 eb c7 cc bc d0 5f de 3c f0 51 3f bc 10 3b e7 3c
       -0.024997672 0.027145296 -0.01167725 0.028226405
000180 80 96 b0 bc c8 92 87 bb b3 1a 04 3b a1 40 84 bc
       -0.021556139 -0.0041373707 0.0020157516 -0.016144099
000190 36 ce df 3c c0 30 86 bc 6f c0 84 3b e3 6c 0b bc
       0.027320009 -0.016380668 0.00405126 -0.008509847
0001a0 5e fa a3 3c 88 a1 05 3c 19 5f 2e 3c 4f 4a 9b bc
       0.020016845 0.008156188 0.01064279 -0.018956332
0001b0 da 37 be bb b9 d9 85 bc b5 5e a2 3c 55 0d 0b bc
       -0.005804998 -0.01633917 0.01982055 -0.008487065
0001c0 f8 05 95 bc c7 a3 bc 3c 46 0c db 39 b4 b5 af bc
       -0.018191323 0.023027314 0.0004178008 -0.021448947
0001d0 3b ea bb bc 0c 50 cb bc 11 0d dc bc b7 fd 5a 3c
       -0.022938838 -0.024818443 -0.0268617 0.013366154

fc2.weight f4 [84, 120]
000000 bd 17 6a bd e7 3e a0 bd 8c 80 c7 3c 1a 75 96 3d
       -0.057151545 -0.07824498 0.024353288 0.07346554
000010 cd 32 69 3d b4 62 9d 3c 58 6b fb ba 8c 52 33 3d
       0.056933213 0.019212104 -0.0019181771 0.043779895
000020 fd 43 09 3d 9a fe 68 bd 65 dc b5 bd 98 73 30 bd
       0.033512104 -0.056883432 -0.088799275 -0.04307899
000030 6b 61 8c 3c a6 6d 96 3d 70 89 05 3d 23 b8 57 3d
       0.017136296 0.073451325 0.032601774 0.05266584
000040 a9 58 84 bd 2e 4f 9d 3d d4 15 68 3d aa fd 65 bd
       -0.06462223 0.07681118 0.056661442 -0.056150116
000050 7b 16 af bc 8f 0c 5e 3d 4b 4a 3d bd 9f 91 1b 3c
       -0.021373024 0.054211196 -0.04621343 0.009495168
000060 e5 c7 9b bd 46 17 8a 3d a0 ea 46 bc 50 ea 17 bd
       -0.07606486 0.0674272 -0.0121409 -0.037088692
000070 43 df 16 bd cd f8 da 3c 19 4d 6f 3d 14 44 98 ba
       -0.036834013 0.026729966 0.058423135 -0.0011616969
000080 98 33 1b bc 89 32 82 bd 2d 47 46 bd ba d0 b0 3d
       -0.00947275 -0.06357295 -0.048407722 0.086335614
000090 a7 0c 22 3d 8a b9 4f 3c 97 e5 b6 3d b0 4e c2 3a
       0.039562847 0.012678513 0.089305095 0.0014824476
0000a0 86 df 09 ba eb e4 51 bd 24 46 40 3d 56 fb 03 bd
       -0.0005259443 -0.051243704 0.04694189 -0.032222115
0000b0 11 d6 86 3d 28 bd 9a 3d ad 81 9b 3d 79 f3 8a bd
       0.06583799 0.0755561 0.07593093 -0.0678472
0000c0 01 36 2b 3d 67 4a 46 3d 81 3d ba bd 15 9d 6a 3d
       0.04179955 0.0484108 -0.09093762 0.05727871
0000d0 54 26 fa bc 16 5a 6b 3d 8b 8a 14 bd f9 07 8d bd
       -0.030535854 0.05745896 -0.036264937 -0.06886286
0000e0 fa 66 99 bc 4a bc 27 3c c7 55 26 bc 62 7d 6e bd
       -0.01872586 0.010237763 -0.010152287 -0.058225043
0000f0 aa 48 36 39 78 d9 2c bd 4f 68 7a bd df 8a b4 bd
       0.00017383942 -0.04219958 -0.061134633 -0.0881555
000100 61 c5 c9 bc 17 84 0b 3d 07 fc 53 bd 01 02 55 bd
       -0.02463025 0.034061518 -0.051754024 -0.052003864
000110 42 1e 5d 3d ed a3 1c 3d 74 5a 01 bd 98 73 a9 bc
       0.053983934 0.03824227 -0.031580403 -0.020685002
000120 92 02 71 bd 10 7b 30 3d 4d 17 13 bd 13 dd 90 3d
       -0.058840342 0.04308611 -0.035910893 0.070734166
000130 a1 19 9e 3d 1d e4 93 3d 7b 37 50 3d a3 ad 8d 3d
       0.07719732 0.072212435 0.05083416 0.06917884
000140 63 d5 96 bd b7 08 a6 bd 1b 81 8b 3d a8 90 62 3d
       -0.07364919 -0.08107131 0.06811734 0.055313736
000150 fc 90 a8 3c 8b 5b 0e bc 2a 49 2c 3c 4f ff a7 bd
       0.020576946 -0.008688818 0.010515491 -0.08202993
000160 dd f7 92 bc 19 e7 b6 bd 64 7e 19 3c f8 92 62 3d
       -0.017940456 -0.08930797 0.009368513 0.05531594
000170 81 ac 60 3d 31 53 00 bd 93 02 a6 bc 87 c8 03 3d
       0.054852013 -0.031329338 -0.0202649 0.03217366
000180 cc ed 89 bd a8 fc 1b bd e0 3c 46 bb bb 54 ad bd
       -0.06734809 -0.03808275 -0.0030248687 -0.08463427
000190 fa fc e1 3c 0e 54 b5 bc 1e 08 11 bd 71 9d 60 3d
       0.027586449 -0.022134807 -0.03540813 0.054837648
0001a0 c5 60 b6 3d b1 e6 41 3d d7 c0 af 3d 7d eb a5 3d
       0.08905176 0.047339145 0.08581703 0.081015565
0001b0 5c d3 5e bd 5e e9 8f 3d 1d ad ac 3d f1 29 0f bb
       -0.054400787 0.07026933 0.08431456 -0.0021845067
0001c0 03 e1 55 3b 20 ac 47 3b 75 82 31 3d f8 bf 87 3d
       0.0032635338 0.0030467585 0.043337304 0.06628412
0001d0 33 be 2d bd 47 76 28 3d f5 2c 94 bd 7f d6 72 bb
       -0.042417716 0.041128423 -0.072351374 -0.003705412
0001e0 8c 50 ab 3d 8b 38 0b 3d e2 d1 a8 3c 7f ce a4 bd
       0.083649725 0.03398947 0.020607892 -0.080471985
0001f0 db b1 be 3c e6 f8 81 3d 68 a4 3a bd 3e d8 78 bd
       0.023278167 0.06346302 -0.045566946 -0.0607531
000200 09 a9 72 bd 77 41 1f bd 58 3c 64 3d aa de 99 3d
       -0.059243236 -0.03888079 0.05572161 0.07513173
000210 b6 7d 53 3d a4 70 84 3c bf 7a 73 3c d2 11 5a bd
       0.05163356 0.016166992 0.014860808 -0.05323965
000220 d7 0e 39 bd c5 d3 52 3c 43 f4 ac 3d dd 69 c8 bc
       -0.045180168 0.012867873 0.08445027 -0.024464542
000230 30 9f 2f 3d 7b 96 17 3d 84 09 30 bc 6c 8d 2f bd
       0.042876422 0.037008744 -0.010744456 -0.04285948
000240 85 85 e6 3c 0e 36 94 3d b1 d0 37 bd 33 0d 94 bd
       0.028139839 0.072368726 -0.044876758 -0.0722908
000250 c1 80 92 3a 7c 59 14 3d b0 3f 56 bd 21 eb ce bc
       0.0011177288 0.03621815 -0.05230683 -0.025258603
000260 4e b4 37 3d 05 95 95 bc 71 81 89 3d ab 23 cf 3c
       0.044849686 -0.018259535 0.06714142 0.025285563
000270 f5 92 a3 bc fb 93 35 bd e8 d4 df bc 0b 3a a5 3d
       -0.019967536 -0.04433058 -0.027323201 0.080677114
000280 4f 7b 4b 3d ef 91 8b bd 35 64 45 bd 73 00 6b 3d
       0.049678143 -0.06814944 -0.048191268 0.057373475
000290 19 af a7 bd c1 0d 8d 3d d9 2f a3 3d 34 c7 67 3d
       -0.08187694 0.06887389 0.079681106 0.05658646
0002a0 90 5b b4 bd 23 04 00 3c 12 6a 42 bd 42 59 c4 3b
       -0.08806527 0.007813486 -0.047464438 0.0059920857
0002b0 82 bc 51 bd db 6b 89 bd 27 77 e0 bc c3 61 a2 3d
       -0.051205166 -0.06710025 -0.027400566 0.07928803
0002c0 5b 2e ce bc 34 39 7b bb 34 df cb bc cb 49 2b 3d
       -0.025168588 -0.0038333656 -0.024886705 0.04181842
0002d0 35 af b5 3b e4 2a 28 3d 61 18 b8 3d a0 c9 9e 3d
       0.005544568 0.04105653 0.08989025 0.07753301
0002e0 c9 30 2a bd 93 58 29 3d 92 58 8b bd cd 9c 93 bd
       -0.04155043 0.041344237 -0.06804003 -0.07207642
0002f0 ac 96 60 3d b3 0f 46 bd e4 db 4f b9 c2 2e 1e 3d
       0.054831192 -0.048354816 -0.00019822974 0.03861881
000300 bf 56 2c bc f8 dc bd 3c 12 4a 3e bd 3b d0 8f 3d
       -0.010518729 0.023176655 -0.046457358 0.07022139
000310 d5 ca b5 bd 39 37 25 3d 38 cc 30 3d 45 48 30 3d
       -0.08876578 0.040335868 0.04316351 0.04303767
000320 51 ea 9b 3c e0 a1 a1 3b 2d 76 1b bd 5c ea a7 3c
       0.01903263 0.004932627 -0.037954498 0.020497493
000330 4e 02 99 3d 20 8f 1b bd a1 15 d3 3b 93 4a 8c bd
       0.07471143 -0.03797829 0.0064417874 -0.068501614
000340 f4 91 79 3a a2 8e 80 bd 67 7c d4 bc 84 dc 34 3c
       0.0009520345 -0.06277205 -0.025938226 0.011038903
000350 d1 3b 54 bd 25 db ae 3c 97 2d aa 3d 30 a7 85 3d
       -0.051814858 0.02134473 0.08309477 0.06526029
000360 4c 00 5d 3d 5c f9 92 3d 15 2c 9a bd 5b 76 91 bd
       0.05395536 0.07176468 -0.07527939 -0.07102653
000370 e4 e1 7a bd dd 39 9e 3c f6 6d a9 bd 0a 2f 60 3c
       -0.061250582 0.0193147 -0.082729265 0.01368309
000380 26 36 74 3d 4c 3f d8 3c 42 00 89 3d 6e fa a9 3d
       0.059621952 0.02639737 0.06689502 0.08299719
000390 66 b0 83 3d 11 5c 34 3c c8 2a 91 3d 15 8b b1 3d
       0.0643013 0.0110082785 0.07088238 0.08669106
0003a0 d5 08 c1 3c b0 72 27 3d 27 da 8e bc 86 73 54 3c
       0.023563782 0.04088086 -0.017438008 0.012966996
0003b0 73 6e a2 3d 8a 8f b7 3d 25 ba 95 bd 50 5a 41 bc
       0.07931223 0.08962925 -0.07310895 -0.011801317
0003c0 33 b2 5a bd 52 df 3b 3d 2b 5c 7c 3d 05 e4 aa 3d
       -0.0533926 0.04586727 0.061611336 0.083442725
0003d0 87 ba 58 3d 03 a6 55 3d 43 88 88 bc 79 e4 32 3d
       0.05291226 0.052160274 -0.016666537 0.04367492
0003e0 dc 7f 38 bd dd 2f 79 bd f8 04 67 3d 14 ca 85 3d
       -0.04504381 -0.06083666 0.056401223 0.06532684
0003f0 24 3d b4 3d 29 67 36 bd 90 0f a1 3d a2 df ba bd
       0.08800724 -0.044531975 0.078642964 -0.09124686

fc2.bias f4 [84]
000000 7d ac b3 3d 44 6e 74 3c 80 a8 92 bc 75 45 ec 3c
       0.08773134 0.0149188675 -0.017902613 0.028841713
000010 b0 05 96 bd 14 db af 3b 05 1f a8 3d 46 ed 5b 3d
       -0.073253036 0.0053666923 0.082090415 0.05369308
000020 ec 16 f9 3c fb fc 8b bd ed c7 45 3d 24 64 a9 bd
       0.030406438 -0.068353616 0.048286367 -0.082710534
000030 a9 9b 9e 3d ac 50 44 3c 6d f6 8e bb 68 14 89 bd
       0.077445336 0.011982124 -0.0043628723 -0.06693345
000040 be 13 22 bd 03 ae 6f bc be 03 97 bc 5e 51 3d bd
       -0.03956961 -0.01462889 -0.018434402 -0.046220176
000050 44 e9 df bb 18 61 a3 3c 20 3d 97 bd e8 12 e9 3c
       -0.0068332274 0.019943759 -0.073847055 0.028451398
000060 ed 24 b6 bd 37 2c b8 bd a3 c5 71 3d 25 03 a2 bd
       -0.08893762 -0.08992808 0.05902637 -0.07910756
000070 93 b2 82 3d e9 00 03 bc ae 73 0c 3d 11 ba 8a bd
       0.063817166 -0.0079958225 0.03429001 -0.067737706
000080 49 8a 97 bd b6 f4 07 3c 8a f9 30 3d 7b 62 f6 b9
       -0.07399423 0.00829809 0.04320673 -0.0004699415
000090 d8 ea 64 3c 31 c5 a0 bd 59 37 9a 3c dd d5 b3 3d
       0.013972007 -0.07850111 0.01882522 0.087810256
0000a0 78 e8 0c bd 0b 0f 12 bd 9c 5e 09 3c 02 34 a9 3d
       -0.034401387 -0.035658877 0.008384373 0.08261873
0000b0 8a 29 6f bd 41 35 61 bd 15 49 85 bd 29 96 32 bd
       -0.058389224 -0.054982428 -0.0650808 -0.043600235
0000c0 20 f5 91 bd f7 89 74 bc 2a 3b c6 3c d4 f6 64 3b
       -0.07126832 -0.0149254715 0.024198133 0.003493716
0000d0 29 a8 aa bd 6b 27 8b bd 36 e6 88 bd 13 0c ef 3c
       -0.08332855 -0.06794628 -0.06684534 0.029180562
0000e0 e7 48 74 3c 11 05 b4 bd 9b 99 6d bd b9 5a 72 bd
       0.014909959 -0.08790029 -0.058007818 -0.05916855
0000f0 73 29 5f bd 4b 83 94 3d d4 9c 47 3d dc 62 09 bd
       -0.05448289 0.07251605 0.048733547 -0.033541545
000100 6e 63 93 3b 9e f3 04 bd 74 8e 2f 3d 2d 06 6c 3d
       0.004497937 -0.032458894 0.042860463 0.057623077
000110 ae c0 96 bc 6f dd 7c bd 5f 6d fa bc cb 33 ae bd
       -0.018402424 -0.061734613 -0.03056973 -0.085059725
000120 0d ba 2b 3d b2 b8 48 bd 4b c1 ea bc dc ff 30 bb
       0.04192548 -0.049004264 -0.028656622 -0.0027007973
000130 d0 d0 a5 bd 9a 62 bb 3d 1c c7 32 3d 12 cf 01 bd
       -0.080964684 0.09149666 0.043646917 -0.03169162
000140 ac 34 89 bd 80 a7 97 bd 4a 0f b3 bb 1b ed 61 3d
       -0.066994995 -0.07404995 -0.005464469 0.055157762

fc3.weight f4 [6, 84]
000000 ce 45 11 3d f4 7b c2 bd c8 84 9e 3d 69 47 11 bc
       0.03546696 -0.094962984 0.0774017 -0.008867123
000010 30 80 6c 3d 31 19 ed bc c6 75 db 3d 9a a4 4a bc
       0.057739437 -0.028942676 0.10715823 -0.012368346
000020 0e 22 2f bd a6 bc cb bd 59 6b 78 bd 5c 5d 8c bd
       -0.042757086 -0.09948091 -0.06064925 -0.068537444
000030 87 fe e5 3d 5d 51 3f bd 30 6e 8e bd 77 69 b6 bd
       0.11230188 -0.046708453 -0.0695461 -0.089068346
000040 7b df 10 3d 5b 72 96 bd 5a 51 11 3c 60 c7 ab 3d
       0.035369378 -0.0734603 0.008869493 0.08387637
000050 1f e8 58 3d 03 a7 c8 bc a6 d7 b9 3b 37 12 fd bc
       0.052955743 -0.0244937 0.0056714593 -0.030892475
000060 0b 3e 02 bd ad b9 83 bd ac 28 c6 bd 26 60 a4 bd
       -0.03179745 -0.06431899 -0.09675726 -0.08026151
000070 3b 9d d9 3d 4e 8a 8f bb 2e 7d f7 b9 4d b1 5e bd
       0.106256925 -0.004380501 -0.00047204777 -0.054368306
000080 10 f5 f3 3c de 4d 68 bd 9b 00 95 3d 14 6a 0e 3d
       0.02977994 -0.056714885 0.07275506 0.034769133
000090 9d d6 86 3c f7 6b 2e bd 88 d6 8d 3d 4b 3b 02 bd
       0.016459757 -0.042583432 0.06925684 -0.031794827
0000a0 b2 5a 89 3d 2b 08 14 bd 24 fc a3 bd 78 b6 8a 3d
       0.06706752 -0.036140602 -0.080070764 0.067730844
0000b0 5c 95 e0 bb 9c 2f cd 3d bd 0e ce 3c b6 68 c2 bc
       -0.0068537425 0.100188464 0.025153512 -0.02373157
0000c0 7b af 72 3d 95 51 55 bc 71 5f 34 bd 1d 11 4a bc
       0.059249382 -0.013019939 -0.044036333 -0.012333182
0000d0 db 81 9c bd fe a4 89 bd 1a fa 9f bd 19 af 49 bd
       -0.076419555 -0.06720923 -0.07811375 -0.04923925
0000e0 ac 5f 4c bd df f2 80 bd 7f 5c d1 bd 50 f9 f4 bb
       -0.049895927 -0.06296324 -0.1022272 -0.0074760094
0000f0 48 a9 19 bd 34 72 1b 3c 6c 08 6d bd 6e 94 84 bc
       -0.037514955 0.009487677 -0.05786936 -0.016184058
000100 cc 41 c7 3c 21 d3 b4 3d c7 ce 58 3c 25 87 46 3d
       0.024323367 0.08829332 0.013232893 0.048468728
000110 45 61 d9 bd da e4 c7 3d 44 a6 c9 bd 3b 37 96 b9
       -0.10614256 0.09760447 -0.09846166 -0.0002865138
000120 fe b9 92 bd cf 07 35 3c c5 15 8c bd 25 7d bd bd
       -0.071643814 0.011049225 -0.0684009 -0.09252385
000130 fc 6b d3 bd 91 f9 8d 3d d9 6b 23 3d 69 fe bc 3d
       -0.10323331 0.06932367 0.039897773 0.092282124
000140 a2 a9 b0 3d 3d fa 84 bc bb 99 ad bc 91 05 b4 3d
       0.08626105 -0.016232604 -0.021191468 0.08790124
000150 a6 b0 40 3d 2b de a0 bc 02 ca b0 3d 86 b8 cb bc
       0.047043465 -0.019637188 0.0863228 -0.024868261
000160 3e 33 c3 3d db 9c 11 bc b5 db b0 3c be 51 f5 3c
       0.09531258 -0.008887495 0.02158914 0.029946204
000170 b2 ae ef bc c4 4d 22 3d d7 25 bb 3d e2 aa 4b bd
       -0.029258106 0.039624944 0.09138077 -0.049723513
000180 05 fa 22 bc bd 4f 37 bc 01 b7 28 3c d5 bb bb 3d
       -0.009947305 -0.011188445 0.010297538 0.091666855
000190 18 21 b1 3d 6e e3 9f bd 51 9d 1e 3d f4 05 61 3d
       0.0864889 -0.07807051 0.038724247 0.054937318
0001a0 95 82 c6 bb 23 f1 da 3d ed c5 88 3d 8c 7e 8b bd
       -0.006058047 0.106905244 0.06678376 -0.06811246
0001b0 16 47 d5 bd d1 c0 de bd c6 e4 38 3d a6 d0 2d bc
       -0.10413949 -0.108766206 0.04514005 -0.010608828
0001c0 cc 3d be 3d 49 6d 91 bd c2 bb 82 3c 0e 8b 75 3d
       0.092891306 -0.071009226 0.01595867 0.059947066
0001d0 75 5a cf bd db af 2f 3c 87 bb 37 3d 1f 01 0a bd
       -0.10124675 0.01072308 0.044856574 -0.033692475
0001e0 79 2c 7a 3b 69 a9 77 3c 55 80 ad bd 59 0c 5a 3d
       0.003817348 0.015116074 -0.08471743 0.053234432
0001f0 2e 15 94 bb e3 41 87 bc eb 65 83 3d 02 00 18 bc
       -0.0045191264 -0.01651091 0.06415924 -0.009277346
000200 60 89 d2 3c 9a 3e fc 3b af 4b 8d 3d e1 77 8b 3d
       0.025700271 0.0076978924 0.06899201 0.068099745
000210 a8 49 30 bd 00 67 d2 bc 98 c6 a2 3d 57 dd b4 3d
       -0.043038994 -0.02568388 0.07948035 0.0883128
000220 95 ea 5a bd 8f 90 bd bd c9 8c b9 bb a8 cb ce bd
       -0.05344637 -0.09256088 -0.005662535 -0.10097438
000230 af 0d 9b bd 92 ed 5a 3d 9b 2f b5 3d 68 19 ab 3c
       -0.07570969 0.05344922 0.08846971 0.020886138
000240 72 52 37 3d 0d a3 6c bd a2 2e 71 bd bc f7 9d bd
       0.04475636 -0.057772685 -0.058882363 -0.07713267
000250 dd c0 90 3d b6 9f 02 3b 6c 0e d8 bd 34 55 c5 bd
       0.07068036 0.001993162 -0.10549626 -0.09635392
000260 79 b4 99 3c 1d 17 86 bd 81 57 03 bc 4b b1 6a 3d
       0.018762814 -0.06547377 -0.008016468 0.057297986
000270 8d 59 47 bd 7d cf d4 3c 6a 44 3a bd 82 59 2c bc
       -0.048669387 0.025977844 -0.0454754 -0.010519387
000280 9d 62 c4 bd a1 c1 8e 3d d4 29 53 3d 38 63 02 bd
       -0.095891215 0.069705255 0.051553562 -0.031832904
000290 c7 8b 45 3b 74 04 46 bd 78 58 cd bd 11 34 8a 3c
       0.0030143128 -0.04834409 -0.1002664 0.01687053
0002a0 6e 32 01 3d c0 2e d5 bd 24 df 11 3d 16 da 26 3d
       0.031542234 -0.104093075 0.035613194 0.040735327
0002b0 0f 2d c5 bd 00 05 aa 3d 4d 3f a0 bd 40 64 c5 bd
       -0.09627735 0.08301735 -0.07824574 -0.09638262
0002c0 96 1b 7d 3d 43 d1 0e 3d 3a 89 54 3d cc 5b 80 3c
       0.061793886 0.034867536 0.051888682 0.015668772
0002d0 39 1f b3 3d 52 48 9d 3d 07 9c 39 3c 3b 1d e6 ba
       0.087461896 0.0767981 0.011328704 -0.0017556319
0002e0 62 9f a3 bd f5 b1 69 bd 5a 49 31 3d 53 16 37 bd
       -0.07989384 -0.05705448 0.043282844 -0.044699024
0002f0 58 c7 a5 3d d8 96 4e 3d b6 bb ef 3c 42 ef ed 3b
       0.080946624 0.050436825 0.029264312 0.007261188
000300 28 99 4a 3c 69 c7 c4 bd fe 4a 15 3d 7e 43 8f bd
       0.012365617 -0.09608347 0.03644847 -0.06995295
000310 cf 98 0e bd 62 0a 80 bd 93 56 c8 3d 0c 90 2b bd
       -0.0348137 -0.0625198 0.09782138 -0.04188542
000320 9c c0 ea bc 03 cf d2 3d e4 12 84 bd 39 d6 55 bd
       -0.028656296 0.102933906 -0.064489156 -0.05220625
000330 53 e3 cc 3d 49 27 69 bd b8 ba cb 3d 21 33 d0 bc
       0.10004296 -0.05692223 0.09947723 -0.025415005
000340 09 81 2c 3d 2b 5d 91 3d 72 97 5f 3d c3 2e ad 3d
       0.042115245 0.070978485 0.05458779 0.08456185
000350 83 50 71 bd 57 82 a2 bd 8c 6e e5 3c 7a 91 9a bd
       -0.058914673 -0.079350166 0.028006814 -0.07547279
000360 a8 77 43 3d f7 aa b6 bd 9c 04 9c 3d d9 d7 b0 3d
       0.047721535 -0.08919328 0.07618067 0.0863492
000370 12 76 b2 3d e2 b2 c0 3c fc 10 32 bd f4 e1 fc bc
       0.087139264 0.023522798 -0.04347323 -0.030869462
000380 ef f8 ee bc 04 47 9d 3d fa 06 ed 3c a8 72 cb 3d
       -0.029171435 0.07679561 0.02893399 0.09933978
000390 95 a8 91 bd c8 e4 f1 bb 0e fd d1 3d 11 5b b6 3d
       -0.071122326 -0.007382009 0.102533445 0.08904088
0003a0 db 1d d7 3d f7 d4 d6 bc 00 ea 02 bb ee 04 82 bc
       0.10503741 -0.026224596 -0.00199759 -0.015871491
0003b0 ae 96 44 bd 78 d9 1c bd ed 94 1b bd c9 b4 31 3d
       -0.04799526 -0.03829333 -0.037983824 0.0433853
0003c0 e0 81 85 3d 05 fa 63 3d a1 1b 71 bd 20 92 92 3c
       0.06518912 0.05565836 -0.05886424 0.017891943
0003d0 58 bc 96 3c 13 e2 6e bd 50 99 00 bd cb 39 c9 3c
       0.018400356 -0.05832107 -0.03139621 0.02456369
0003e0 11 b2 32 3d d5 cb d4 bd 5c 44 a6 bc 61 dc 87 bd
       0.04362685 -0.103904404 -0.020296268 -0.06633831
0003f0 f8 7f 3e 3c 9f a4 43 bd da 62 23 3d f0 e1 26 3d
       0.01162719 -0.047764417 0.039889194 0.040742815

fc3.bias f4 [6]
000000 37 60 9e 3c c1 80 7e 3d 32 a1 92 bd 9f 54 12 3d
       0.019332988 0.062134508 -0.07159652 0.035725232
000010 73 d6 f5 bd 44 e5 0e 3d
       -0.120037936 0.034886613
